task3/best_model.pt (torch, 540743 bytes, 20 tensors)

conv1.weight f4 [16, 1, 1, 3]
00000000: 4024 06bf 3d55 c1bb f75b 7f3b 90c3 1fbf
00000010: ca52 cebe 32ba 16bd 0c16 19bc 75b3 713a
00000020: 6ba3 8e3d 6e26 8abf dfb2 8ebf 56b8 5dbf
00000030: 36d1 8abd ac3e acbb 1e82 9fbd dac1 64bc
00000040: ae15 3abc e976 75bc 1f51 cfbe 36ef 1bbf
00000050: d2f0 79bf c4ea 32bc fb7e 98bd a02a 9fbc
00000060: 71a0 81be 7293 11be d98a eabe 8de4 a0be
00000070: 511e 80bc eeff debc ca91 31bd 44c7 a7be
00000080: 4a6e 9b3b 510c 65be 8f98 73be c07d 16bb
00000090: 6896 adbc e461 efbd ebf4 d9bc 5f6d 443d
000000a0: 4809 b73d 38a0 033e 5008 95be 859b a3bd
000000b0: e9d3 98be d997 48bf bf32 8fbe 24ff 84bf
-0.52399063 -0.005900054 0.0038964727 -0.6240778 -0.40297538 -0.036798663 -0.009343635 0.00092201616
0.06964763 -1.0792978 -1.1148337 -0.866094 -0.06778185 -0.0052564945 -0.0778849 -0.013962233
-0.011357708 -0.014981964 -0.40491578 -0.6091188 -0.9763309 -0.01092023 -0.074460946 -0.019429505
-0.2531772 -0.14216402 -0.45809057 -0.3142437 -0.015639456 -0.027221646 -0.043351926 -0.32769215
0.004743372 -0.2236798 -0.23788665 -0.0022963136 -0.021189883 -0.11688593 -0.026606044 0.047955867
0.08937317 0.12854087 -0.29107904 -0.07988647 -0.29849175 -0.783567 -0.27968404 -1.0390363

conv1.bias f4 [16]
00000000: b99e 4fbe 1138 9cbd f2e2 d9be 5fa1 bcbc
00000010: 1ac6 a9bd 4849 b1bc dc30 5abd f4d2 c83c
00000020: c17c 52be 7e13 4dbe 5a28 e2be 1850 10be
00000030: 0c72 fcbd 522c 173e 8653 35be 8dc7 07bd
-0.20275392 -0.07627881 -0.42555958 -0.023026166 -0.08289738 -0.021641389 -0.053269252 0.024514653
-0.20555402 -0.20026967 -0.4417141 -0.14093053 -0.1232644 0.14763 -0.17707643 -0.03314929

conv2.weight f4 [32, 16, 1, 3]
00000000: e1d7 9bbe 93c1 c33d bb9f 5e3d f0a0 92be
00000010: 5255 90bd 10a8 8fbe d366 0bbd 101d 10be
00000020: 1f65 1e3e fe51 17bf 4751 8dbe 9786 debe
00000030: ffad c83d 7a12 193e c2f1 f03d d501 7cbe
00000040: 1c53 b43c ba6a d1bd afda c5be 79f7 56be
00000050: 327b b6be 639e f5bc 3537 5c3d fe33 3ebd
00000060: f53f 873e 529e c23d a408 243e dcf0 fcbd
00000070: 7849 de3c efc4 513e 953f 7f3d 4189 4fbd
00000080: 5f40 553d 7a19 84be 1d6e 13be 4c10 b2bd
00000090: 40ae cfbc 2f98 423e 9b55 133e 21ca c33d
000000a0: 5521 483d 0eb0 493d 33e1 653e 07db 373e
000000b0: ea1f 0abe 8516 cabe 8331 a7be 3ce8 a2be
000000c0: 8195 ebbd a5a3 0bbe 0579 903e 5f1d 03be
000000d0: 547c 24be 8f88 31be f1fb 98bc 7b18 bf3d
000000e0: 90ee 62bd 4bc6 01bf 7637 b7be aead 97be
000000f0: 10ee 843e 9e9c 883d e857 b3bc e2c3 37be
00000100: 09df a83d 1886 abbd b299 c4be f308 8cbe
00000110: 5fae 90be c693 98be d3df 40bd bdcd 383e
00000120: bbf3 373e 09c6 da3d 16ac e63c 6bce 67be
00000130: 16ca 29be 07e2 593e 3de5 a63d 6efb db3c
00000140: f114 9a3d b1d0 91be 552a 7a3d dc9a ac3e
00000150: c475 7fbd fe77 78bd a44d adbc 22fd 063e
00000160: 2030 b73d f71c db3d 579f de3d 5031 093d
00000170: 3245 4e3e 0dd6 36be 0e4b 21bc b165 a5be
00000180: 2f96 06be 8d9a b43d 0973 6c3d 2245 1c3e
00000190: d67a c1bd 400d 3ebd 4ced b6bd fb73 a3bd
000001a0: 343c ecbd e8b4 e63e 5043 483e 5e82 e13e
000001b0: 0d16 98bd 1b1d 9d3d 2a2a 7abd a3b2 8bbd
000001c0: b109 87be 96b7 1dbd 0dd1 8e3e 946d 6d3e
000001d0: d806 1b3e 9f20 28be fc64 28be af66 cabd
000001e0: 648a a7be cb48 813e cd0c c9be 9ef1 903d
000001f0: 44a5 8b3e fd4c 03be 663f 3b3e 573e 19be
00000200: 62f4 793d cb63 a0be c2ac 03be fc08 51be
00000210: 8953 163e f724 593d 13db 38bd 2c50 84be
00000220: 6040 dfbd 1e34 00be 6014 a5be f37f ac3d
00000230: cdea d3be 7540 653e 78f2 323e 524e 123e
00000240: e811 87be dc8f 1fbe a42e c3bd b044 4f3e
00000250: 11fe 7fbe 514e b4bd ae1e 2ebe d079 5cbd
00000260: a379 63bb de71 c93e e056 963e 509f 8a3e
00000270: 4e56 153e 9277 293d f2dc 8f3c 1eaf f8bc
00000280: 2d80 9fbd 527a 7fbe 2e65 8a3e c67d 073e
00000290: b573 563e f51c 243d b5fb a2bd 8c96 7bbe
000002a0: d137 38be af7d 55be 3a5d a0be d8ff 77bd
000002b0: c94c 183e c4b1 a2be 44e7 b439 3463 4c3d
000002c0: 8d8e 7fbe ef07 493d 9f70 1cbe 2c4f 92be
000002d0: 33d8 d8bc 3ea2 3b3d 3538 c23c 0997 61be
000002e0: f07f 99bd 2247 9dbe 1121 c6be 1381 943d
000002f0: d691 9fbe 0e5d 6b3e aabd 0a3e 66cb 093e
00000300: bc96 32be ac1f 3bbe 9325 8ebd e82d 45be
00000310: d112 7cbe 1ae5 c63d 6bb4 b9be ccc2 37be
00000320: 2856 84be ea52 873e fb96 483e c884 ce3e
00000330: 6e73 17be c7a0 723e b663 8abe 54e4 6cbd
00000340: 66d4 2ebe b003 5ebe 825b b73d ef57 6abd
00000350: 72a9 c33e 3c31 d5bd 6f26 6fbe 882a 8dbe
00000360: 0569 bcbe 4267 14be 4891 473d 4165 903c
00000370: f99f 4d3e 874e 3dbe 8181 c6be 9471 c0be
00000380: d2ca 0cbd dbd5 76be 1507 9dbd 8bf6 91bd
00000390: 7bd8 a8be 771f 22bd db52 b5bd a063 2cbe
000003a0: 51c4 c0bd 4310 b4be bd1f 84be 647c d3bd
000003b0: bf5f 68bd 5963 e53d 0b96 c23d 7007 d93e
000003c0: 0272 9e3d 181e 743d f0bd 793e f86f bebd
000003d0: c6cc 70be 2dfb 07be e6de c43d 7a8a a3bd
000003e0: ee5e 2fbe 6c66 f1be 57f9 cfbe 40fb b4be
000003f0: d536 babc 12d3 c93d 749f 32bd 6f36 3d3d
-0.3043814 0.09558406 0.05435155 -0.2863841 -0.070475236 -0.2805791 -0.034033608 -0.14073586
0.15468262 -0.59109485 -0.27601072 -0.4346206 0.09798812 0.14948454 0.11764862 -0.24610074
0.022012286 -0.102254346 -0.38643405 -0.20992841 -0.35640866 -0.029982751 0.053763587 -0.046436302
0.26415983 0.095028535 0.16018921 -0.12350628 0.027134642 0.2048528 0.062316496 -0.050668005
0.052063342 -0.25800687 -0.14397474 -0.08694515 -0.025351644 0.19003366 0.14388125 0.095600374
0.048859913 0.049240164 0.22449188 0.17954646 -0.13488737 -0.39470306 -0.32654962 -0.31817806
-0.11503125 -0.13636644 0.2821733 -0.12804173 -0.16063052 -0.17337249 -0.018674823 0.09330841
-0.055403292 -0.50693196 -0.357845 -0.29624695 0.25962877 0.06670497 -0.021892503 -0.17945817
0.082456656 -0.08375186 -0.3839851 -0.27350578 -0.28258035 -0.29800242 -0.047088455 0.18047233
0.1796407 0.106823035 0.028158229 -0.22637336 -0.16580996 0.21277629 0.081491925 0.02685329
0.075235255 -0.2847953 0.061075527 0.33711898 -0.06236817 -0.06066131 -0.021155186 0.131825
0.08944726 0.10698884 0.108702354 0.033494294 0.20143583 -0.17855091 -0.009844555 -0.32304147
-0.13143228 0.08818541 0.057726894 0.15260747 -0.09447257 -0.046399355 -0.089319795 -0.07981106
-0.1153492 0.45059896 0.19556928 0.44044775 -0.07426081 0.07671567 -0.061075367 -0.068211816
-0.2637458 -0.03850516 0.27893868 0.23186332 0.1513933 -0.16418694 -0.16444772 -0.098828666
-0.3272277 0.2525085 -0.3926758 0.07077335 0.27274525 -0.12822337 0.18285903 -0.14965187
0.061024077 -0.31326136 -0.1285887 -0.20413584 0.14680304 0.053013768 -0.0451308 -0.25842416
-0.109009504 -0.12519881 -0.32242107 0.08422842 -0.41390076 0.2238787 0.17475307 0.1428769
-0.2638085 -0.15582222 -0.0953038 0.20241046 -0.24999262 -0.08804 -0.17003891 -0.053827107
-0.0034709952 0.39344686 0.29363155 0.2707467 0.14583704 0.041373797 0.01756141 -0.03035694
-0.077881195 -0.24949005 0.2703032 0.13231573 0.20942576 0.040066678 -0.079581656 -0.24569148
-0.17990042 -0.20848726 -0.31321126 -0.060546726 0.14873041 -0.3177625 0.00034504582 0.049899295
-0.24956723 0.04907983 -0.15277337 -0.28576028 -0.02647028 0.045809023 0.023708442 -0.22030272
-0.07495105 -0.30718333 -0.38697103 0.072511815 -0.31165951 0.22984716 0.13548914 0.13456497
-0.17440313 -0.182738 -0.069407605 -0.19255793 -0.24616553 0.097116664 -0.3627046 -0.17945403
-0.25846982 0.26430446 0.19588844 0.4033568 -0.14790127 0.23694144 -0.27029198 -0.05783494
-0.17073211 -0.21681094 0.089530006 -0.057212766 0.38215214 -0.10409781 -0.23354505 -0.2757151
-0.36798874 -0.14492515 0.048722535 0.017626407 0.20080556 -0.18486987 -0.3877068 -0.37586653
-0.034373112 -0.24105017 -0.076673664 -0.071271025 -0.32977661 -0.03958079 -0.08853694 -0.16834879
-0.094124444 -0.35168657 -0.25805464 -0.1032646 -0.056731936 0.1120059 0.09501275 0.42388487
0.07736589 0.059599012 0.24388862 -0.092987 -0.23515615 -0.1327941 0.09612827 -0.07985397
-0.17126057 -0.47148454 -0.4061992 -0.3534794 -0.022731224 0.098547116 -0.043609098 0.04619449

conv2.bias f4 [32]
00000000: ae1d 8dbd 0a50 75bd 16e5 8a3d 8221 1b3c
00000010: 5087 56bb d6e1 9cbc be24 42bc 65a6 bfbb
00000020: 2e5f a73d 3bd2 c5bd 2804 d6bc b6b0 0dbc
00000030: 091f 093d 9542 713d 7dd2 05bc c2f1 15bd
00000040: bfb9 a93c d8d9 c2bd 427a a3bd 824d 9b3b
00000050: e021 cc3b a00e 95bd e14c 80bd c0e0 9fbd
00000060: 0f83 09bd 9411 4a3c b8e2 783b bb71 2f3d
00000070: 2b1b 833d 1915 eebc 21ae 203b 70dc afbc
-0.068904266 -0.059890784 0.06781976 0.009468438 -0.003273446 -0.019150656 -0.01184958 -0.005848693
0.08172451 -0.09659239 -0.026125029 -0.008648088 0.033476863 0.05890139 -0.00816786 -0.03660751
0.020718453 -0.09514207 -0.07982303 0.0047394643 0.006229624 -0.0727818 -0.062646635 -0.078065395
-0.033572253 0.0123332925 0.0037976932 0.04283307 0.06401666 -0.029062795 0.0024517851 -0.021467417

fc1.weight f4 [100, 1280]
00000000: 3f8f 6ebe 8b23 2ebe bdd0 1f3e 0ff8 a63e
00000010: d46e fbbd da59 453e 15c8 d43c 2910 df3d
00000020: ed4b b3bd d997 db3d ebf9 193d 4b96 22bd
00000030: 9579 403e b183 9c3d eb6c 62bd c684 ffbd
00000040: 492b 52be 9743 a23e 9b52 f2bc 16b7 07be
00000050: 272a 8fbd 2c2e d73d 2732 85be e050 69bd
00000060: 13c7 89bd 386c 14be 4803 52be 683e 543e
00000070: 7c32 8fbd 6f6d 4b3c 05fb 5abe 6dcf 033e
00000080: 65e0 863e 7346 cdbe 6d23 b63d a18b 37be
00000090: 87d5 933d 8c9b 163e b8e2 a73c b0b1 633d
000000a0: b1e1 c03e 7614 09be 4877 96bd 7f10 b3be
000000b0: 8909 3e3e b3b6 f6be a383 5a3e 4a0b 93bd
000000c0: 0e5b 15bd 5ba2 06be f154 75bd 173a 313e
000000d0: f830 83be 8377 823e f9e7 2cbe f76e 2bbe
000000e0: 8050 553e 21fe 9a3c 32a5 a2be 3e25 30bd
000000f0: 08c6 9c3e 1da9 d73e 04b6 423d 78b9 b73e
00000100: 0953 9d3c 2cbf 44b9 cc68 ae3e 1772 cb3e
00000110: 3cc6 b73e 9be5 8f3d d966 08be 3742 e3bd
00000120: f411 023e cd0a 7b3e 80d4 223e 7b8a dbbe
00000130: 6efa 85be e298 0c3d 37c9 0c3d 6688 1ebe
00000140: 1c3b 533c 9e8d d63e 3f24 903c c11b 62be
00000150: 0165 39bc 358e b23e 88ea 00be ad8a 743b
00000160: 0699 013e e9b8 68be d850 0fbe 767d 983e
00000170: 9657 473d ee03 67be 9552 84be d00e 8f3d
00000180: 8bed e13d 84cc ea3d a7bf 39be 52ac e93d
00000190: 6ca0 e43d 5400 2a3f 7614 df3d 7764 f4bd
000001a0: 544d 03be 7c8e 5bbe 93a6 d7bd 702f 913e
000001b0: 22bf 1b3e 1d0c 1cbd dc35 b93c 6209 96be
000001c0: 8d29 973e 2e0d c3bd 711d 2e3e 0a63 ed3d
000001d0: 1f8c 8dbe 5332 003d 8ffd 433e 4c95 c93d
000001e0: 463c 44be 4924 47bd 8bb3 1bbe ab66 e5bd
000001f0: e4e8 a7bd ed02 2abd 0bac 153e 2995 b5bd
00000200: 5054 70be 928c 50be ad74 85be fafe 893e
00000210: 14d4 98bb b38e 1abe bfa6 9ebe 35a1 683e
00000220: bdf5 403d 4605 573e 116b 813e eab6 d63e
00000230: f8e6 f2bd 4add 25bc 88a6 873a ffd8 18be
00000240: 5b07 fc3d 093b 36bd fe45 cdbd a429 55be
00000250: 0976 1cbe 6586 1d3c faf0 7d3e ce97 bdbe
00000260: e504 46bc f202 e5be c956 363d ffea 343e
00000270: 13c6 b63c e7ed 94be 1157 f23e f072 97be
00000280: b8ba b4bd 0869 843e 07d3 03bd 59af e0bd
00000290: 46fb 033e 5ccb 203e 94e2 593e ca34 513e
000002a0: 5e2c 76be fd2e c13e 09dd 303e 31f1 c6be
000002b0: 5171 4b3d 5da6 f7be 2311 263e a04d c3be
000002c0: a41d 55bd 20fc 063c 4ce0 99bd b4bb b93d
000002d0: 6b79 2ebd 68f6 0bbd f19d 40bd d7af d53c
000002e0: e442 923d d45a f63d d070 ab3d a0e9 1fbe
000002f0: 9617 7fbd 5326 d0bd 25d2 b8bd f4a0 373a
00000300: 1590 fbbd b24b 103e 3ae2 593c 5423 153d
00000310: 8e51 17be 3c17 cabd 4f57 ecbe ca3a 343c
00000320: aa35 cebe 3e4d 40bd 2275 d83d 8920 143e
00000330: 88ee 353d 1b70 1b3c 42de 363e 1534 85bd
00000340: 626f 0c3f 5edf bbbe b5e1 acbe d31d dabd
00000350: 6bb7 4dbc 7457 7b3e c160 743e 0d26 9cbd
00000360: 3bf1 c3bd 6ed5 393c f3b2 2f3d 384d 783e
00000370: a1de 463e 2a5b d3bb b0c8 2c3c 94a6 263d
00000380: 4181 a83d a2aa 00be fced aabd 9485 733e
00000390: 75be 3ebe d1d9 8a3e 04c5 213d f712 d2bc
000003a0: 46a9 433e 2f90 013d 6e4d 8abe 14dd 38be
000003b0: 36e8 28bc 72df 383e f147 4d3d 005c 013f
000003c0: 19ba 8f3e 121f 523e 1965 b7be a8fc 9cbe
000003d0: 46ef 3c3e dd0b 9dbe fdf3 be3e 9ca3 543c
000003e0: 3dee af3c b050 9bbd 48b0 703d e746 963c
000003f0: 9f69 a0bd 19e4 2bbd d131 7a3e 66c3 8bbd
-0.23296832 -0.17005746 0.15606971 0.3261113 -0.12276998 0.19272557 0.025974313 0.10891754
-0.08754716 0.10722322 0.037591856 -0.03969411 0.1879638 0.07642306 -0.055279654 -0.124764964
-0.20524324 0.31692192 -0.029580405 -0.13253435 -0.06990462 0.105068535 -0.26014826 -0.056961894
-0.067274235 -0.14494407 -0.20509064 0.20726931 -0.06992051 0.012416228 -0.21384819 0.12872095
0.26343074 -0.4009281 0.08893476 -0.17924358 0.072184615 0.14707774 0.02049385 0.055589378
0.3767219 -0.13386711 -0.0734697 -0.34973523 0.18558325 -0.48186263 0.21339278 -0.071798876
-0.03646379 -0.13147871 -0.05989546 0.17307316 -0.25623298 0.25481805 -0.16885366 -0.16741548
0.2083149 0.018920006 -0.3176666 -0.043004267 0.30619836 0.4212121 0.047536865 0.3588369
0.019204633 -0.00018763234 0.3406433 0.3973548 0.35893428 0.07026216 -0.13320483 -0.11096614
0.12702161 0.24515839 0.15901375 -0.4287909 -0.26167625 0.034325488 0.03437158 -0.1548172
0.012892511 0.4190492 0.017595408 -0.220809 -0.011315585 0.3487412 -0.12589467 0.0037314103
0.1265603 -0.22726788 -0.13995683 0.2978322 0.048667513 -0.22560093 -0.25844255 0.06985247
0.11031636 0.114647895 -0.18139516 0.114098206 0.111634105 0.6640675 0.108925745 -0.11933225
-0.12822467 -0.21441072 -0.105298184 0.28356504 0.1520963 -0.03809749 0.02260869 -0.29304034
0.29523888 -0.09523998 0.17003419 0.11591156 -0.27645966 0.031297993 0.19139694 0.09842929
-0.19163617 -0.04861859 -0.15205209 -0.11201223 -0.08198717 -0.041506696 0.1461641 -0.08866341
-0.23469663 -0.20366123 -0.2606558 0.26952344 -0.0046639536 -0.15093498 -0.30986592 0.22717746
0.047109354 0.20998105 0.25276998 0.41936427 -0.1186046 -0.01012356 0.0010349313 -0.14926527
0.123060904 -0.044489894 -0.100231156 -0.20816666 -0.15279402 0.009614562 0.24798957 -0.3702988
-0.012086128 -0.4472881 0.04451636 0.17667769 0.022311246 -0.29087755 0.4733205 -0.29579878
-0.08824676 0.25861382 -0.032183673 -0.10970945 0.12888822 0.15702575 0.21277839 0.20430294
-0.24040362 0.37731162 0.17271818 -0.3885589 0.049668614 -0.48369113 0.16217475 -0.3814516
-0.05203022 0.008238822 -0.07513484 0.09069005 -0.042596262 -0.03417054 -0.047025625 0.026084824
0.071416646 0.12029043 0.08371127 -0.15616465 -0.062278353 -0.1016356 -0.09024457 0.000700488
-0.12283341 0.14091375 0.0132985655 0.036410645 -0.14777204 -0.09867713 -0.4616036 0.0110003445
-0.40275317 -0.046948664 0.10569216 0.14465536 0.044416934 0.009487177 0.17858222 -0.065040745
0.54857457 -0.36693853 -0.3376595 -0.1065022 -0.012555937 0.2454508 0.23865034 -0.07624445
-0.095674954 0.0113423895 0.04289527 0.24248207 0.19420864 -0.0064500766 0.0105458945 0.040686205
0.08227778 -0.12565091 -0.08346173 0.23781425 -0.18627341 0.27119306 0.03949453 -0.025643809
0.19107541 0.031631645 -0.270122 -0.18053085 -0.01030927 0.18053988 0.050117437 0.50531006
0.2807167 0.20519665 -0.3581932 -0.3066151 0.1845065 -0.30673113 0.37295523 0.012978461
0.021475906 -0.07583749 0.058761865 0.018344356 -0.078326456 -0.041965578 0.24433066 -0.06824379

fc1.bias f4 [100]
00000000: 18eb cebd a269 1e3c 15d9 413e 9072 0ebe
00000010: 3f61 d0bd d276 85bb 511c a63d c899 13be
00000020: 6f2a e8ba e887 74be cc6e ae3d 4b64 25bc
00000030: f170 09be 34be b63c a253 063d e142 87bd
00000040: c2f3 573b f742 99bd cbbc 0cbd a280 a9bd
00000050: 13e1 c0bc 5280 2d3d f85e 803c 63e3 18bd
00000060: a5a2 883d 8bf7 ffbc bb94 37bd b231 afbd
00000070: 1d5f 173d 1a85 003e a769 273e e9b3 243e
00000080: 8e3c 583e 7b68 e5bd 4385 0a3b 5953 d6bd
00000090: c7c6 fbbc ba1a 54be 55b3 a1bd 671a e2bc
000000a0: 6994 233e aa48 a9bd b782 cd3c 77da 3c3d
000000b0: e3b5 20be d7ed dabd a9b7 aebd 5a8b a13d
000000c0: 654e ddbc 5644 673d d33f 96bd e5ef ba3b
000000d0: 38a0 a23b 5af3 c9bc 343e ecbb 337c b53d
000000e0: 250a 7cbd 7585 dabb 5d50 90bd 4c33 0dbe
000000f0: f665 6abd 963e abbd 4e16 7bbd d05c 893d
00000100: dcc0 4dbd da8e a33d b4f1 5fbe 2e76 ab3b
00000110: 854d 9cbd 760f d8bd 2457 8abd 8386 7fbd
00000120: bdea 833d c41f 3ebd 6e2f abbd 8d25 bf3d
00000130: 07ae acbd ad86 cc3c e0e5 5d3b a55d 75be
00000140: e2b6 873b e957 03be 7a6b 503d ee7f f33d
00000150: 7f54 65be f335 233d 7962 41bd 530e a6bc
00000160: 2cd8 a0bc 7fd8 e8bd 3be1 b83d 62f4 f43c
00000170: 1d04 a0bc f730 1e3d c2ed eb3d 3793 51be
00000180: 1b6e 91be 1c04 7ebd 780a 323c 7071 bd3b
-0.10103434 0.0096687395 0.18930466 -0.1391089 -0.10174798 -0.0040730024 0.0811087 -0.14414132
-0.0017712842 -0.23879969 0.085172266 -0.0100947125 -0.1342199 0.022307493 0.032794602 -0.06604553
0.0032951687 -0.07483476 -0.034359735 -0.08276488 -0.023544824 0.042358704 0.015670285 -0.037326228
0.06671647 -0.031245967 -0.044819575 -0.085544005 0.03695594 0.12550774 0.16348897 0.16084255
0.2111685 -0.11201569 0.002113656 -0.10465116 -0.030734433 -0.2071332 -0.07895533 -0.02760048
0.15974583 -0.08265813 0.025086744 0.04610678 -0.15694384 -0.106898956 -0.08531124 0.07887907
-0.02701492 0.056461655 -0.07336392 0.005704867 0.004962947 -0.024652172 -0.0072095636 0.0886158
-0.061533112 -0.0066687413 -0.07046578 -0.137891 -0.057226144 -0.08361547 -0.06130057 0.06707156
-0.050232753 0.07986231 -0.21869546 0.005232594 -0.07631973 -0.10549824 -0.06754902 -0.06238414
0.06441257 -0.046417013 -0.08358656 0.09333334 -0.084316306 0.024966562 0.003385894 -0.23961504
0.0041416744 -0.12826504 0.050883748 0.11889635 -0.22395514 0.03984637 -0.04721305 -0.020270502
-0.019634329 -0.11369418 0.09027334 0.029901687 -0.019533211 0.038620915 0.11519958 -0.20466314
-0.28404316 -0.062015638 0.010866754 0.005781345

fc2.weight f4 [128, 10]
00000000: ee3b e8be aa34 83bd 0ae9 b0be 6122 3bbf
00000010: d0bb 17bb 68f5 a1bd d9bd 13bd 5c14 27bd
00000020: aa77 02bf 2776 2ebf 271d 2dbe be82 acbd
00000030: d17a 22bf fe36 9ebd 886e 2dbc 9052 d4bc
00000040: bbd1 89be 337c 8abd 2b2c 8fbd 3c08 a7bd
00000050: 2296 adbe b538 933d 15d9 cabe 7f5c 34be
00000060: 4754 7a3d 3f85 113d f30d d93d 92ba 9b3d
00000070: 2c78 c4bb 2714 97be 7ed6 503e e17f 223d
00000080: b774 6abe 79a6 83bc 9ca5 c4be bffe 3ebe
00000090: 5a77 6abe 7d55 383e 9066 ecbd aaa4 863d
000000a0: 4482 03be e974 91bd cc97 afbd 1b65 7cbc
000000b0: 0c14 09bd a4af a8bd 50b9 8cbd 1e95 debd
000000c0: d6c4 c8bd 3240 88be 5ff1 01bf 63ae 8abd
000000d0: 6644 81bd 5769 1dbf 3e69 b9bd 693b f8be
000000e0: e0bd aabd 9683 aebd 86b1 51bd b30b 9ebd
000000f0: 510b 95bd f193 f7bd d2d5 86bd 5eee 00bf
00000100: 1102 d8bd 19b5 eabd 5375 46be 58ee 81bf
00000110: e52f 0fbe 3eae 97bd 82cd 23bd 88d2 f3bd
00000120: 554b acbd 58c1 80bd e337 91be d7a0 f5be
00000130: f49c 20bf 935b 2fbf 3505 6cbd 26a0 a2bd
00000140: 0ffc 7a3e 7d25 04be 75e5 803d 290c 02be
00000150: 946a dbbe 5228 95bc 5827 d0bd 8d39 383e
00000160: 2832 05bd 5f85 a3be 1285 1b3e 88cf d63d
00000170: 2c12 0abd 7074 1abe 094a 46bd 75f2 05bf
00000180: 4673 963d ed10 99be 9650 4f3e d257 aebe
00000190: 8581 aabe 7b0b 65be 81cb d53c f2f0 babe
000001a0: 54bf 813d 9599 6cbe 8fc4 103e 048d 863d
000001b0: 3da7 303d 4394 843d a42b aabe ca4b 35be
000001c0: 62b9 67be 198e abbe 11b0 95be 2f84 97be
000001d0: f4a0 9bbe 6242 4f3c ab3d a2bd bfc1 92be
000001e0: c1cc 74bc ee2f 47be 357b 573e e581 22be
000001f0: 5a87 fcbd 94ea 17be 6a7d 82be bafb 99bd
00000200: 9f1e 063d 35eb 5abe d129 e7bd 4cfa debd
00000210: 46e2 0bbe 5410 05be ffe5 bcbd a5a4 0ebe
00000220: 1d73 0cbf b673 72bd 8aac 92bd 2fb2 27be
00000230: 2151 4abe 21b1 e5bd ba9c adbe cd1e 93be
00000240: c654 a5bd d2a2 9fbe f1ba b0be fbf3 0f3d
00000250: 264f 40bd 5db6 6abe 8185 a8bd d0d2 a5be
00000260: 5931 5ebe 7736 7cbc 5cdc 1cbe 8e1b a3be
00000270: 609c a6be 7be4 74be 5f53 abbe d849 99be
00000280: 0dc0 cebd 1443 56be e679 65bd 5fb6 f83d
00000290: 5e5c 61be 796c 233e 2f0c 2ebe 0daf 01be
000002a0: e97a 5ebe 054a 523e 2ffd 9c3d 2090 9bbe
000002b0: 9898 9e3d fae4 07be f38c 00be 6a64 01bf
000002c0: 9c23 33be a0dc 063e a4f1 363d d9e2 17bd
000002d0: dc52 67be f5ae dfbe 6036 cebe fa6a 88be
000002e0: 3779 07be 374c eebe 114b 32be 75ab 0abf
000002f0: 8097 acbb d694 84be 36c9 f1bd fca3 9e3d
00000300: 7c58 26be 9997 87be 5526 563d 572b 65bd
00000310: 6177 80be aae5 31be 13da 1bbd 4f8b 063e
00000320: b726 98be 2fda 3bbd b2b6 ee3d 716d b13d
00000330: 8ed7 20bd b2f6 bcbe 4609 62be a2a2 153e
00000340: 4b3f 123c f512 40be 23a4 cabd 86b1 73be
00000350: 69e4 e4bc a21e 6fbe 1d98 77be 6e31 c0bd
00000360: a477 ee3c 5421 8abe 1a95 4abe 6bca f0be
00000370: d7d0 993d 70ec 0abe 5204 2fbe f117 3bbe
00000380: 8d53 22be 59ed 6e3e 85fc 35be 0a4f c0bd
00000390: e07d ffbd ab60 26be 5005 e2be 169b 46bd
000003a0: ac94 a3be c453 90bc eb2d f8bc d123 12be
000003b0: 948a 57bf 9a0a 65bd ab4c 21bf 55a4 0abf
000003c0: feac cbbd 7ed3 97be 8c0e 19be 8539 44be
000003d0: 786d 34bf b321 563d 5a14 36be 3edd a0be
000003e0: 16d3 61bd eb57 07be 231c bdbd 29f4 b5be
000003f0: 6a2a 4d3a 733d 37bd 6149 97bd 16ee 503c
-0.45358223 -0.06406529 -0.34552795 -0.73099333 -0.0023152716 -0.07908136 -0.036069725 -0.0407909
-0.5096384 -0.68149036 -0.16905652 -0.084233746 -0.6346865 -0.07725333 -0.010585435 -0.025918275
-0.26917824 -0.0676197 -0.06990846 -0.081558675 -0.33903605 0.071885504 -0.39618745 -0.1761341
0.06111553 0.035527464 0.10598364 0.07603945 -0.005995771 -0.29507563 0.20394322 0.039672736
-0.22896086 -0.016070591 -0.384076 -0.18651865 -0.22897092 0.18001361 -0.11543 0.06574376
-0.12842661 -0.07102377 -0.08573875 -0.015404965 -0.033466384 -0.08236626 -0.06871283 -0.108682856
-0.098031685 -0.26611477 -0.5075893 -0.06771543 -0.06311874 -0.6148886 -0.090532765 -0.48482826
-0.08336997 -0.08521192 -0.05119469 -0.07717075 -0.07277549 -0.120887645 -0.06583752 -0.5036372
-0.10547269 -0.11460323 -0.19380693 -1.0150862 -0.13983114 -0.07406281 -0.03999091 -0.1190539
-0.08412806 -0.062868774 -0.2836295 -0.47974274 -0.6273949 -0.68499106 -0.057622153 -0.07940702
0.24510215 -0.12904926 0.062937655 -0.12699951 -0.4285475 -0.018207703 -0.10163754 0.17990704
-0.032518536 -0.31937692 0.15187481 0.10488802 -0.033708736 -0.1508348 -0.04841045 -0.52323085
0.073462054 -0.29895726 0.20245585 -0.34051377 -0.3330194 -0.2236766 0.026098015 -0.36511952
0.06335321 -0.23105462 0.14137481 0.06569865 0.04312824 0.06473591 -0.3323642 -0.17704692
-0.22629312 -0.3350685 -0.2923589 -0.29593036 -0.30396235 0.012650104 -0.079219185 -0.28663442
-0.014941395 -0.19451877 0.21043094 -0.15869863 -0.12330504 -0.14835578 -0.25486308 -0.07518716
0.032744046 -0.21378787 -0.11287273 -0.10887584 -0.13660535 -0.1299451 -0.09223556 -0.13929994
-0.5486315 -0.05919238 -0.071618155 -0.16376565 -0.1975751 -0.11215425 -0.33908635 -0.28734437
-0.0807281 -0.3117891 -0.34517625 0.035144787 -0.04695048 -0.22921129 -0.08228589 -0.323874
-0.21698512 -0.015393845 -0.15318435 -0.3185696 -0.3254118 -0.23915283 -0.33462045 -0.2993915
-0.100952245 -0.20924026 -0.056024455 0.121441595 -0.22007892 0.15959348 -0.16996835 -0.12664433
-0.21726574 0.20536049 0.076654784 -0.30383396 0.07743949 -0.13270941 -0.12553768 -0.50543845
-0.17494053 0.131701 0.04466404 -0.037081573 -0.22590202 -0.4368817 -0.4027586 -0.26644117
-0.13229834 -0.46542522 -0.17411448 -0.5416787 -0.0052670836 -0.25894803 -0.11805956 0.07746121
-0.16244692 -0.26482847 0.05228265 -0.055949535 -0.2509108 -0.17372766 -0.03804977 0.1313908
-0.29717037 -0.045862373 0.1165594 0.086634524 -0.03926807 -0.36906964 -0.2207385 0.1461282
0.008926223 -0.18757232 -0.09894588 -0.23798189 -0.027940946 -0.23351529 -0.2417912 -0.09384428
0.029109783 -0.26978552 -0.1978344 -0.47029433 0.07510536 -0.13566756 -0.17091492 -0.18270852
-0.15852185 0.23332728 -0.1777211 -0.093900755 -0.124751806 -0.16247813 -0.44144678 -0.048487745
-0.31949365 -0.017618068 -0.030295333 -0.14271475 -0.8419583 -0.055918314 -0.6300761 -0.54157
-0.09945105 -0.29653543 -0.14946955 -0.19162567 -0.70479536 0.05227823 -0.17781201 -0.31418794
-0.055132948 -0.13217132 -0.09233882 -0.35537842 0.00078264496 -0.044736337 -0.07387043 0.012752077

fc2.bias f4 [128]
00000000: 2a02 703d a2a0 e13d 2b9c 36bd 950c f0bc
00000010: a328 093e 5891 c13d aa89 a93d 7925 ae3d
00000020: b534 96bd e501 c5bc 0fdf 04bd 7ddc 1ebe
00000030: e955 1abd 8497 103e 4b91 3dbe f605 69be
00000040: 5f73 0cbc bb34 3dbd e2c0 4fbe 1a7d 43bd
00000050: da1a a2bd 2228 f9bd 8406 b2bd e473 a93d
00000060: 5141 37be 0531 e63d 0c1f 4ebe 8731 4a3d
00000070: aad1 2bbd 7165 5fbd cde8 29be 22fc 8f3d
00000080: d5e9 fbbd ab09 0dbe 6a86 91bd 77a1 ee3d
00000090: 3077 053e 4be8 2fbe 61bb 0cbe 5ec2 b1bd
000000a0: efe2 31be 6589 0f3e b3bb ea3d e2e1 2f3d
000000b0: 8b3c bc3d c79c e8bc f0ff 093e e2ad ebbc
000000c0: a51f 55be cd0a fbbc 906b 4a3d 4841 3ebe
000000d0: f256 bf3d f450 42be 9fc0 f63d 46f9 00bd
000000e0: 0546 de3d 0228 073e 20bd 2dbe 33fd a83d
000000f0: 52b5 60bd 44e7 9b3d 446d 6ebd bce7 a53d
00000100: bed7 30bd a3f3 e63d 9066 44be 83c3 833d
00000110: e97a 35be f704 28be fd59 4bbe 7593 5ebe
00000120: 86b2 58be b9b2 30be 0c61 61be d0af 85bd
00000130: a157 36be 7273 40bd 1fc5 61bd d92e 273e
00000140: 8160 8ebd ff01 a1bd d79d c4bd 2171 83bd
00000150: 3cb4 35be 3b33 303e 31cd f13d 128e cd3d
00000160: a715 72bd 22e3 bbbc 4fa0 8e3d e93d 2fbe
00000170: ac6a 0b3e ddc8 853d fcd1 1d3e 4b0e 91bd
00000180: aefe 103e c1e0 3cbe 87d1 cebd b06e 13be
00000190: 28b1 3cbe 23ed 9dbd 0566 af3d b944 4bbe
000001a0: 5c72 f5bd 50aa 103e faa3 133e b8c2 52be
000001b0: 2ae8 5dbe 8979 9cbd 8ecf 9b3d 0a17 68bd
000001c0: 5660 17be c205 06be ca23 d63d 4dcc 06be
000001d0: ca39 ecbd 2923 4fbe 9b84 0ebe 172a 7dbd
000001e0: 8a09 18be 80da 23bf ce68 44be 2a09 17be
000001f0: 529c 9dbd 702e 23be 0347 e1bc c9b6 dbbd
0.058595814 0.110169664 -0.044582527 -0.029302875 0.13394408 0.0945155 0.082782105 0.08503241
-0.07334272 -0.024048755 -0.032439288 -0.15513797 -0.037679587 0.14120299 -0.18512456 -0.2275618
-0.0085724285 -0.046192866 -0.20288423 -0.047726728 -0.07915278 -0.12165858 -0.08692649 0.082740575
-0.1789601 0.112398185 -0.20129031 0.04936364 -0.041947998 -0.0545401 -0.16592713 0.070305124
-0.12300459 -0.1377322 -0.071057156 0.11651891 0.13033748 -0.17178456 -0.13743354 -0.08679651
-0.17371725 0.14017256 0.11461582 0.042940028 0.09191235 -0.02839507 0.13476539 -0.028769437
-0.20812853 -0.030644799 0.049418986 -0.1857959 0.093427554 -0.18976194 0.12048458 -0.031487726
0.10853199 0.13198856 -0.16966677 0.08251419 -0.05486042 0.0761247 -0.058209673 0.081008404
-0.043174498 0.11276939 -0.1917975 0.06433775 -0.17722668 -0.16408144 -0.19858547 -0.21735938
-0.21161851 -0.17255677 -0.22009677 -0.06527674 -0.17806865 -0.046985097 -0.05511963 0.16326465
-0.069520004 -0.07861709 -0.09600418 -0.06418062 -0.17744535 0.17207043 0.11806715 0.100368634
-0.05910268 -0.022935454 0.0696417 -0.1711346 0.13614911 0.06532452 0.15412134 -0.07082804
0.14159653 -0.18445112 -0.10098558 -0.14397693 -0.18426955 -0.07711246 0.085643806 -0.19850434
-0.11984703 0.14127469 0.14418021 -0.20582092 -0.21670595 -0.076403685 0.07607947 -0.056662597
-0.14782843 -0.13088134 0.10456045 -0.13163872 -0.1153446 -0.20228256 -0.13917772 -0.061807718
-0.14847389 -0.6400528 -0.19180605 -0.1474959 -0.07695831 -0.15935683 -0.027499681 -0.10728223

fc3.weight f4 [24, 128]
00000000: 0a80 d33c da67 323c 5959 ddbc e61c 913c
00000010: 3975 5cbc 08b4 5d3d c37f a9bb de1f 79bd
00000020: cbe6 af3c 5d5b 103d 17f8 0b3c 114d 643d
00000030: b2d4 dc3b 4530 213c 66c0 91bd bd62 dc3d
00000040: 731b ecbc 4593 04bc 749d 53bc dbc0 93bc
00000050: 7ae0 3f3d 80db 23b8 83a5 8fbb dc13 18bc
00000060: ae69 a6bd 32fa 213c 45c4 2bbd d348 d23c
00000070: a64c 963c 79f5 863d 7a4d f63d d3da 973c
00000080: 0098 61bc 0e78 753d 997e 8f3c b987 12bd
00000090: 99c2 40bc e112 9fbd b439 1cba 5aff 083d
000000a0: 19af c73c c015 bc3c aa81 3ebd a74a b9bb
000000b0: 98ed 313c 60e4 043c fef8 e33b 9c9f d33c
000000c0: 9d1b 423d cdc3 b63c caa2 4abd b34d 8a3c
000000d0: 304f a33c fefc 333c e290 df3c d17f 32bc
000000e0: 67a6 323c e4b3 31bc c177 98bc 9a5c 7b3c
000000f0: e7a3 efbc 878e 0bbc 1d89 9dbb 64b7 8cbc
00000100: 0327 9abc 3f63 4b3d 5e8f 70bd f1f0 523d
00000110: c159 c63c 2d9e 5fbc 9ccc 753d ff3c 013d
00000120: 5637 d73d d043 16bc 7312 cbbc b44c a1bb
00000130: 2e82 8cbd 65c8 85bd de7e 38bd cf69 10bc
00000140: 6595 193c 7754 a83d 274b 0cbd 15c4 24bb
00000150: 6777 e5bd 50f5 323d 7ae2 8fbc ab51 973c
00000160: d0cb 7ebc c128 d63b 7ef2 47bb 6759 713c
00000170: 6d32 fa3b 6ca5 47bd 6f58 25bd c3a9 9a3b
00000180: 3c7b 513c 7652 a9bc 3ce3 2cbc 4231 d13c
00000190: 5f8b e23c a08a a0bc 0fec 92bc babb c0bc
000001a0: 8600 dcbd 89d6 35bc d1c5 dbbc 5ffd 14bd
000001b0: dc25 17bb 7174 fc3d a987 edbb 2742 b53c
000001c0: a9f8 dfbc 9f79 ff3b 24cb cdbc e014 493d
000001d0: 3ce6 cfbc cd1f 9b3d 5492 a03c ba75 9b3c
000001e0: 3924 efbc 2c53 11bc cf05 e53c 6fc6 a6bd
000001f0: b41a 04bc faa2 31bd 3c5f aabb 8b79 02bd
00000200: d9b9 473c d689 91bc b174 e1bb 6caa 99ba
00000210: 6ce0 4dbc 1a0c 55bc 79e1 3bbd 782d b03c
00000220: 123a cb3c d12c ec3b 1c9a 333c ad79 4a3c
00000230: 892c 83bc d7c6 87bc 571e 2f3c 0059 0fbd
00000240: 7bcb 813c 703e edbc 1d84 623b c3a2 1b3b
00000250: 1073 f83c de45 c5bc 02a7 e6bb 66a9 233b
00000260: 317f 193d 1f4b 403d 2b5a 02bc 0db8 4b3c
00000270: d477 1f3c ee72 cabc 0129 18bd 2a74 8abc
00000280: e1f4 b93c 0cf7 13bd 883b 523d d530 82bc
00000290: 5013 95bc 854b 04bd e6bd 05bd 994a e13d
000002a0: 58bf 81bc 6f64 75bd c275 2ebc e5dc 003d
000002b0: 20b8 b2ba d6f3 0c3c 8c8b 95b9 cc7a e9bc
000002c0: 999a 1d3d 2af2 b3bc fa6a ef3c e096 6fbd
000002d0: e32c 21bd 0bd2 fcbc f962 b0bb c906 5e3b
000002e0: 0124 bdbb e407 11bc 2601 94bc c75b 0d3d
000002f0: 66fb ffba 7ef0 a43c d3ec c43b 2674 503c
00000300: 79a3 dcbc c67b 8f3b f341 70bd 7368 ccbb
00000310: 9827 fdbc 7ba6 a6bd 05aa 803d ea19 49bc
00000320: 4ff2 183d 3c37 bcbc 5d49 5bbd b01f 893c
00000330: 4ad4 253d 8c8a 3bbc eb05 cc3c e6fc 7ebc
00000340: 33d3 f53b 90b1 91bc 408a c5bc ce91 5a3c
00000350: 9e4b b7bd 7f29 9abb fc99 bc3c c186 74bc
00000360: 90ad e73c de4b 19bc 43d4 20bc 9aa9 1abd
00000370: 0ae8 dfbb 1a40 a53c f847 f83b 3917 493c
00000380: 1f91 163c 5036 f5bd d6c8 a3bc d4bc 55bd
00000390: d836 9f3b a20c 49bd 9ddb 83bc 9b4d 08bd
000003a0: f956 0bbd d18a 233d 6cc9 73bc 988a 533d
000003b0: 5ed3 05bd 95b3 69bd 510d 96bd cc59 f73c
000003c0: 0568 57bd 8ab4 9dbb 2bc8 983b 01ae c2bc
000003d0: eaa0 113d 0046 1bbd feb0 d43c 1432 513c
000003e0: 4df5 f63c 6ea1 d439 a9a7 3cbd 8a48 d13c
000003f0: dc2c 9f3c acb8 2a3d d576 1a3c 9363 ecbc
0.02581789 0.010889018 -0.027020143 0.017713975 -0.013455682 0.05412677 -0.005172701 -0.060821407
0.021472355 0.03524338 0.008543036 0.05573756 0.0067392224 0.0098381685 -0.07116775 0.1076102
-0.028821683 -0.008091752 -0.012915958 -0.018036297 0.046844937 -3.9066654e-05 -0.004383744 -0.009282079
-0.081256256 0.009886311 -0.041935224 0.02566949 0.018347096 0.06589789 0.12026496 0.01853696
-0.01376915 0.059928946 0.017516421 -0.035773966 -0.011765146 -0.07767273 -0.0005959526 0.033446647
0.024375485 0.02295959 -0.046510376 -0.005654651 0.010859869 0.0081110895 0.0069571724 0.025832944
0.047389615 0.022310162 -0.049471654 0.016882753 0.01993522 0.010985611 0.027290765 -0.010894732
0.010903931 -0.010846112 -0.01861179 0.015341902 -0.02925296 -0.008517868 -0.004807605 -0.017177291
-0.01881743 0.049655195 -0.058730476 0.05149931 0.02421272 -0.013648552 0.060009584 0.03155231
0.10508601 -0.009171441 -0.02478907 -0.004922474 -0.06860767 -0.06532363 -0.045042865 -0.008814289
0.009373997 0.082192354 -0.03425136 -0.0025141288 -0.11204415 0.04369098 -0.017564047 0.01847156
-0.015551522 0.00653562 -0.0030509527 0.014730788 0.0076354058 -0.048741743 -0.04036754 0.004719944
0.012785729 -0.020669203 -0.010552224 0.025536183 0.027654348 -0.019597352 -0.017934827 -0.023527015
-0.10742287 -0.011098512 -0.026827725 -0.036374446 -0.0023063337 0.12326897 -0.007248838 0.02212627
-0.02734025 0.007796481 -0.025121279 0.049092174 -0.025378339 0.07574425 0.019601025 0.018977035
-0.029192077 -0.008869927 0.027956871 -0.08143317 -0.008063007 -0.043368317 -0.005199341 -0.031854194
0.012190306 -0.01776592 -0.006880366 -0.0011723763 -0.012565713 -0.0130033735 -0.045869324 0.021506056
0.024807964 0.007207491 0.0109620355 0.012358111 -0.016012447 -0.016574306 0.010688386 -0.034996986
0.015844097 -0.028960437 0.003456361 0.0023748137 0.030328304 -0.024081167 -0.007038952 0.0024972796
0.037474815 0.04694664 -0.007956068 0.012434018 0.009733159 -0.024713006 -0.03714848 -0.016901094
0.022699775 -0.036124274 0.051326305 -0.015892426 -0.018197685 -0.032298584 -0.032651804 0.110005565
-0.01583831 -0.059910234 -0.010648193 0.03146066 -0.0013635196 0.008603057 -0.00028523465 -0.028500937
0.038477514 -0.021966059 0.029225815 -0.058493495 -0.039349448 -0.030861875 -0.005382892 0.0033878556
-0.0057721143 -0.008851979 -0.018066954 0.034511354 -0.0019529879 0.020134207 0.006009677 0.012723004
-0.026933419 0.0043787686 -0.058656644 -0.0062380373 -0.030902669 -0.081372224 0.06282429 -0.012274245
0.03734046 -0.022975557 -0.05353676 0.016738743 0.040485658 -0.011446606 0.024905166 -0.015563225
0.0075019835 -0.017784864 -0.024113774 0.013340427 -0.0894997 -0.0047046538 0.023022644 -0.014924706
0.028281003 -0.009356467 -0.009816232 -0.0377594 -0.006833081 0.020172168 0.0075769387 0.012273603
0.009189873 -0.1197325 -0.019993227 -0.052182034 0.004858833 -0.049084313 -0.01609593 -0.033277135
-0.03401849 0.039927308 -0.014879566 0.051645845 -0.03267228 -0.05705603 -0.07326759 0.030194186
-0.052589435 -0.0048127817 0.0046625338 -0.023764612 0.03555385 -0.037908554 0.025963303 0.012768287
0.030146265 0.00040556066 -0.04605833 0.025547285 0.01943057 0.041680023 0.009427746 -0.028856074

fc3.bias f4 [24]
00000000: 5bc2 a7bd 7df4 d9bc 29bb 91bd d0cc 4cbe
00000010: c7b2 363d 95c3 6a3d 414d 13be 8387 1ebc
00000020: 5966 bdbd 3340 883d 0014 15be 6b13 95bd
00000030: be38 f5bc 0cdd b2bc 7a02 563d 46ef b03c
00000040: 35d5 0ebe 6fa5 b9bd 674c ce3a d5ef 9dbd
00000050: 5656 76be 8285 ca3d e2d5 c13c efe5 fc3d
-0.08191367 -0.026605839 -0.07115776 -0.20000005 0.04460409 0.057315428 -0.14384939 -0.009675863
-0.09248037 0.0665287 -0.1455841 -0.07279094 -0.029934283 -0.021833919 0.052248456 0.02159847
-0.1394852 -0.09064757 0.0015739322 -0.0771176 -0.24056372 0.09888746 0.023661558 0.12348544

seq_conv.0.weight f4 [100, 1280]
00000000: 3f8f 6ebe 8b23 2ebe bdd0 1f3e 0ff8 a63e
00000010: d46e fbbd da59 453e 15c8 d43c 2910 df3d
00000020: ed4b b3bd d997 db3d ebf9 193d 4b96 22bd
00000030: 9579 403e b183 9c3d eb6c 62bd c684 ffbd
00000040: 492b 52be 9743 a23e 9b52 f2bc 16b7 07be
00000050: 272a 8fbd 2c2e d73d 2732 85be e050 69bd
00000060: 13c7 89bd 386c 14be 4803 52be 683e 543e
00000070: 7c32 8fbd 6f6d 4b3c 05fb 5abe 6dcf 033e
00000080: 65e0 863e 7346 cdbe 6d23 b63d a18b 37be
00000090: 87d5 933d 8c9b 163e b8e2 a73c b0b1 633d
000000a0: b1e1 c03e 7614 09be 4877 96bd 7f10 b3be
000000b0: 8909 3e3e b3b6 f6be a383 5a3e 4a0b 93bd
000000c0: 0e5b 15bd 5ba2 06be f154 75bd 173a 313e
000000d0: f830 83be 8377 823e f9e7 2cbe f76e 2bbe
000000e0: 8050 553e 21fe 9a3c 32a5 a2be 3e25 30bd
000000f0: 08c6 9c3e 1da9 d73e 04b6 423d 78b9 b73e
00000100: 0953 9d3c 2cbf 44b9 cc68 ae3e 1772 cb3e
00000110: 3cc6 b73e 9be5 8f3d d966 08be 3742 e3bd
00000120: f411 023e cd0a 7b3e 80d4 223e 7b8a dbbe
00000130: 6efa 85be e298 0c3d 37c9 0c3d 6688 1ebe
00000140: 1c3b 533c 9e8d d63e 3f24 903c c11b 62be
00000150: 0165 39bc 358e b23e 88ea 00be ad8a 743b
00000160: 0699 013e e9b8 68be d850 0fbe 767d 983e
00000170: 9657 473d ee03 67be 9552 84be d00e 8f3d
00000180: 8bed e13d 84cc ea3d a7bf 39be 52ac e93d
00000190: 6ca0 e43d 5400 2a3f 7614 df3d 7764 f4bd
000001a0: 544d 03be 7c8e 5bbe 93a6 d7bd 702f 913e
000001b0: 22bf 1b3e 1d0c 1cbd dc35 b93c 6209 96be
000001c0: 8d29 973e 2e0d c3bd 711d 2e3e 0a63 ed3d
000001d0: 1f8c 8dbe 5332 003d 8ffd 433e 4c95 c93d
000001e0: 463c 44be 4924 47bd 8bb3 1bbe ab66 e5bd
000001f0: e4e8 a7bd ed02 2abd 0bac 153e 2995 b5bd
00000200: 5054 70be 928c 50be ad74 85be fafe 893e
00000210: 14d4 98bb b38e 1abe bfa6 9ebe 35a1 683e
00000220: bdf5 403d 4605 573e 116b 813e eab6 d63e
00000230: f8e6 f2bd 4add 25bc 88a6 873a ffd8 18be
00000240: 5b07 fc3d 093b 36bd fe45 cdbd a429 55be
00000250: 0976 1cbe 6586 1d3c faf0 7d3e ce97 bdbe
00000260: e504 46bc f202 e5be c956 363d ffea 343e
00000270: 13c6 b63c e7ed 94be 1157 f23e f072 97be
00000280: b8ba b4bd 0869 843e 07d3 03bd 59af e0bd
00000290: 46fb 033e 5ccb 203e 94e2 593e ca34 513e
000002a0: 5e2c 76be fd2e c13e 09dd 303e 31f1 c6be
000002b0: 5171 4b3d 5da6 f7be 2311 263e a04d c3be
000002c0: a41d 55bd 20fc 063c 4ce0 99bd b4bb b93d
000002d0: 6b79 2ebd 68f6 0bbd f19d 40bd d7af d53c
000002e0: e442 923d d45a f63d d070 ab3d a0e9 1fbe
000002f0: 9617 7fbd 5326 d0bd 25d2 b8bd f4a0 373a
00000300: 1590 fbbd b24b 103e 3ae2 593c 5423 153d
00000310: 8e51 17be 3c17 cabd 4f57 ecbe ca3a 343c
00000320: aa35 cebe 3e4d 40bd 2275 d83d 8920 143e
00000330: 88ee 353d 1b70 1b3c 42de 363e 1534 85bd
00000340: 626f 0c3f 5edf bbbe b5e1 acbe d31d dabd
00000350: 6bb7 4dbc 7457 7b3e c160 743e 0d26 9cbd
00000360: 3bf1 c3bd 6ed5 393c f3b2 2f3d 384d 783e
00000370: a1de 463e 2a5b d3bb b0c8 2c3c 94a6 263d
00000380: 4181 a83d a2aa 00be fced aabd 9485 733e
00000390: 75be 3ebe d1d9 8a3e 04c5 213d f712 d2bc
000003a0: 46a9 433e 2f90 013d 6e4d 8abe 14dd 38be
000003b0: 36e8 28bc 72df 383e f147 4d3d 005c 013f
000003c0: 19ba 8f3e 121f 523e 1965 b7be a8fc 9cbe
000003d0: 46ef 3c3e dd0b 9dbe fdf3 be3e 9ca3 543c
000003e0: 3dee af3c b050 9bbd 48b0 703d e746 963c
000003f0: 9f69 a0bd 19e4 2bbd d131 7a3e 66c3 8bbd
-0.23296832 -0.17005746 0.15606971 0.3261113 -0.12276998 0.19272557 0.025974313 0.10891754
-0.08754716 0.10722322 0.037591856 -0.03969411 0.1879638 0.07642306 -0.055279654 -0.124764964
-0.20524324 0.31692192 -0.029580405 -0.13253435 -0.06990462 0.105068535 -0.26014826 -0.056961894
-0.067274235 -0.14494407 -0.20509064 0.20726931 -0.06992051 0.012416228 -0.21384819 0.12872095
0.26343074 -0.4009281 0.08893476 -0.17924358 0.072184615 0.14707774 0.02049385 0.055589378
0.3767219 -0.13386711 -0.0734697 -0.34973523 0.18558325 -0.48186263 0.21339278 -0.071798876
-0.03646379 -0.13147871 -0.05989546 0.17307316 -0.25623298 0.25481805 -0.16885366 -0.16741548
0.2083149 0.018920006 -0.3176666 -0.043004267 0.30619836 0.4212121 0.047536865 0.3588369
0.019204633 -0.00018763234 0.3406433 0.3973548 0.35893428 0.07026216 -0.13320483 -0.11096614
0.12702161 0.24515839 0.15901375 -0.4287909 -0.26167625 0.034325488 0.03437158 -0.1548172
0.012892511 0.4190492 0.017595408 -0.220809 -0.011315585 0.3487412 -0.12589467 0.0037314103
0.1265603 -0.22726788 -0.13995683 0.2978322 0.048667513 -0.22560093 -0.25844255 0.06985247
0.11031636 0.114647895 -0.18139516 0.114098206 0.111634105 0.6640675 0.108925745 -0.11933225
-0.12822467 -0.21441072 -0.105298184 0.28356504 0.1520963 -0.03809749 0.02260869 -0.29304034
0.29523888 -0.09523998 0.17003419 0.11591156 -0.27645966 0.031297993 0.19139694 0.09842929
-0.19163617 -0.04861859 -0.15205209 -0.11201223 -0.08198717 -0.041506696 0.1461641 -0.08866341
-0.23469663 -0.20366123 -0.2606558 0.26952344 -0.0046639536 -0.15093498 -0.30986592 0.22717746
0.047109354 0.20998105 0.25276998 0.41936427 -0.1186046 -0.01012356 0.0010349313 -0.14926527
0.123060904 -0.044489894 -0.100231156 -0.20816666 -0.15279402 0.009614562 0.24798957 -0.3702988
-0.012086128 -0.4472881 0.04451636 0.17667769 0.022311246 -0.29087755 0.4733205 -0.29579878
-0.08824676 0.25861382 -0.032183673 -0.10970945 0.12888822 0.15702575 0.21277839 0.20430294
-0.24040362 0.37731162 0.17271818 -0.3885589 0.049668614 -0.48369113 0.16217475 -0.3814516
-0.05203022 0.008238822 -0.07513484 0.09069005 -0.042596262 -0.03417054 -0.047025625 0.026084824
0.071416646 0.12029043 0.08371127 -0.15616465 -0.062278353 -0.1016356 -0.09024457 0.000700488
-0.12283341 0.14091375 0.0132985655 0.036410645 -0.14777204 -0.09867713 -0.4616036 0.0110003445
-0.40275317 -0.046948664 0.10569216 0.14465536 0.044416934 0.009487177 0.17858222 -0.065040745
0.54857457 -0.36693853 -0.3376595 -0.1065022 -0.012555937 0.2454508 0.23865034 -0.07624445
-0.095674954 0.0113423895 0.04289527 0.24248207 0.19420864 -0.0064500766 0.0105458945 0.040686205
0.08227778 -0.12565091 -0.08346173 0.23781425 -0.18627341 0.27119306 0.03949453 -0.025643809
0.19107541 0.031631645 -0.270122 -0.18053085 -0.01030927 0.18053988 0.050117437 0.50531006
0.2807167 0.20519665 -0.3581932 -0.3066151 0.1845065 -0.30673113 0.37295523 0.012978461
0.021475906 -0.07583749 0.058761865 0.018344356 -0.078326456 -0.041965578 0.24433066 -0.06824379

seq_conv.0.bias f4 [100]
00000000: 18eb cebd a269 1e3c 15d9 413e 9072 0ebe
00000010: 3f61 d0bd d276 85bb 511c a63d c899 13be
00000020: 6f2a e8ba e887 74be cc6e ae3d 4b64 25bc
00000030: f170 09be 34be b63c a253 063d e142 87bd
00000040: c2f3 573b f742 99bd cbbc 0cbd a280 a9bd
00000050: 13e1 c0bc 5280 2d3d f85e 803c 63e3 18bd
00000060: a5a2 883d 8bf7 ffbc bb94 37bd b231 afbd
00000070: 1d5f 173d 1a85 003e a769 273e e9b3 243e
00000080: 8e3c 583e 7b68 e5bd 4385 0a3b 5953 d6bd
00000090: c7c6 fbbc ba1a 54be 55b3 a1bd 671a e2bc
000000a0: 6994 233e aa48 a9bd b782 cd3c 77da 3c3d
000000b0: e3b5 20be d7ed dabd a9b7 aebd 5a8b a13d
000000c0: 654e ddbc 5644 673d d33f 96bd e5ef ba3b
000000d0: 38a0 a23b 5af3 c9bc 343e ecbb 337c b53d
000000e0: 250a 7cbd 7585 dabb 5d50 90bd 4c33 0dbe
000000f0: f665 6abd 963e abbd 4e16 7bbd d05c 893d
00000100: dcc0 4dbd da8e a33d b4f1 5fbe 2e76 ab3b
00000110: 854d 9cbd 760f d8bd 2457 8abd 8386 7fbd
00000120: bdea 833d c41f 3ebd 6e2f abbd 8d25 bf3d
00000130: 07ae acbd ad86 cc3c e0e5 5d3b a55d 75be
00000140: e2b6 873b e957 03be 7a6b 503d ee7f f33d
00000150: 7f54 65be f335 233d 7962 41bd 530e a6bc
00000160: 2cd8 a0bc 7fd8 e8bd 3be1 b83d 62f4 f43c
00000170: 1d04 a0bc f730 1e3d c2ed eb3d 3793 51be
00000180: 1b6e 91be 1c04 7ebd 780a 323c 7071 bd3b
-0.10103434 0.0096687395 0.18930466 -0.1391089 -0.10174798 -0.0040730024 0.0811087 -0.14414132
-0.0017712842 -0.23879969 0.085172266 -0.0100947125 -0.1342199 0.022307493 0.032794602 -0.06604553
0.0032951687 -0.07483476 -0.034359735 -0.08276488 -0.023544824 0.042358704 0.015670285 -0.037326228
0.06671647 -0.031245967 -0.044819575 -0.085544005 0.03695594 0.12550774 0.16348897 0.16084255
0.2111685 -0.11201569 0.002113656 -0.10465116 -0.030734433 -0.2071332 -0.07895533 -0.02760048
0.15974583 -0.08265813 0.025086744 0.04610678 -0.15694384 -0.106898956 -0.08531124 0.07887907
-0.02701492 0.056461655 -0.07336392 0.005704867 0.004962947 -0.024652172 -0.0072095636 0.0886158
-0.061533112 -0.0066687413 -0.07046578 -0.137891 -0.057226144 -0.08361547 -0.06130057 0.06707156
-0.050232753 0.07986231 -0.21869546 0.005232594 -0.07631973 -0.10549824 -0.06754902 -0.06238414
0.06441257 -0.046417013 -0.08358656 0.09333334 -0.084316306 0.024966562 0.003385894 -0.23961504
0.0041416744 -0.12826504 0.050883748 0.11889635 -0.22395514 0.03984637 -0.04721305 -0.020270502
-0.019634329 -0.11369418 0.09027334 0.029901687 -0.019533211 0.038620915 0.11519958 -0.20466314
-0.28404316 -0.062015638 0.010866754 0.005781345

seq_conv.3.weight f4 [16, 1, 1, 3]
00000000: 4024 06bf 3d55 c1bb f75b 7f3b 90c3 1fbf
00000010: ca52 cebe 32ba 16bd 0c16 19bc 75b3 713a
00000020: 6ba3 8e3d 6e26 8abf dfb2 8ebf 56b8 5dbf
00000030: 36d1 8abd ac3e acbb 1e82 9fbd dac1 64bc
00000040: ae15 3abc e976 75bc 1f51 cfbe 36ef 1bbf
00000050: d2f0 79bf c4ea 32bc fb7e 98bd a02a 9fbc
00000060: 71a0 81be 7293 11be d98a eabe 8de4 a0be
00000070: 511e 80bc eeff debc ca91 31bd 44c7 a7be
00000080: 4a6e 9b3b 510c 65be 8f98 73be c07d 16bb
00000090: 6896 adbc e461 efbd ebf4 d9bc 5f6d 443d
000000a0: 4809 b73d 38a0 033e 5008 95be 859b a3bd
000000b0: e9d3 98be d997 48bf bf32 8fbe 24ff 84bf
-0.52399063 -0.005900054 0.0038964727 -0.6240778 -0.40297538 -0.036798663 -0.009343635 0.00092201616
0.06964763 -1.0792978 -1.1148337 -0.866094 -0.06778185 -0.0052564945 -0.0778849 -0.013962233
-0.011357708 -0.014981964 -0.40491578 -0.6091188 -0.9763309 -0.01092023 -0.074460946 -0.019429505
-0.2531772 -0.14216402 -0.45809057 -0.3142437 -0.015639456 -0.027221646 -0.043351926 -0.32769215
0.004743372 -0.2236798 -0.23788665 -0.0022963136 -0.021189883 -0.11688593 -0.026606044 0.047955867
0.08937317 0.12854087 -0.29107904 -0.07988647 -0.29849175 -0.783567 -0.27968404 -1.0390363

seq_conv.3.bias f4 [16]
00000000: b99e 4fbe 1138 9cbd f2e2 d9be 5fa1 bcbc
00000010: 1ac6 a9bd 4849 b1bc dc30 5abd f4d2 c83c
00000020: c17c 52be 7e13 4dbe 5a28 e2be 1850 10be
00000030: 0c72 fcbd 522c 173e 8653 35be 8dc7 07bd
-0.20275392 -0.07627881 -0.42555958 -0.023026166 -0.08289738 -0.021641389 -0.053269252 0.024514653
-0.20555402 -0.20026967 -0.4417141 -0.14093053 -0.1232644 0.14763 -0.17707643 -0.03314929

seq_conv.6.weight f4 [32, 16, 1, 3]
00000000: e1d7 9bbe 93c1 c33d bb9f 5e3d f0a0 92be
00000010: 5255 90bd 10a8 8fbe d366 0bbd 101d 10be
00000020: 1f65 1e3e fe51 17bf 4751 8dbe 9786 debe
00000030: ffad c83d 7a12 193e c2f1 f03d d501 7cbe
00000040: 1c53 b43c ba6a d1bd afda c5be 79f7 56be
00000050: 327b b6be 639e f5bc 3537 5c3d fe33 3ebd
00000060: f53f 873e 529e c23d a408 243e dcf0 fcbd
00000070: 7849 de3c efc4 513e 953f 7f3d 4189 4fbd
00000080: 5f40 553d 7a19 84be 1d6e 13be 4c10 b2bd
00000090: 40ae cfbc 2f98 423e 9b55 133e 21ca c33d
000000a0: 5521 483d 0eb0 493d 33e1 653e 07db 373e
000000b0: ea1f 0abe 8516 cabe 8331 a7be 3ce8 a2be
000000c0: 8195 ebbd a5a3 0bbe 0579 903e 5f1d 03be
000000d0: 547c 24be 8f88 31be f1fb 98bc 7b18 bf3d
000000e0: 90ee 62bd 4bc6 01bf 7637 b7be aead 97be
000000f0: 10ee 843e 9e9c 883d e857 b3bc e2c3 37be
00000100: 09df a83d 1886 abbd b299 c4be f308 8cbe
00000110: 5fae 90be c693 98be d3df 40bd bdcd 383e
00000120: bbf3 373e 09c6 da3d 16ac e63c 6bce 67be
00000130: 16ca 29be 07e2 593e 3de5 a63d 6efb db3c
00000140: f114 9a3d b1d0 91be 552a 7a3d dc9a ac3e
00000150: c475 7fbd fe77 78bd a44d adbc 22fd 063e
00000160: 2030 b73d f71c db3d 579f de3d 5031 093d
00000170: 3245 4e3e 0dd6 36be 0e4b 21bc b165 a5be
00000180: 2f96 06be 8d9a b43d 0973 6c3d 2245 1c3e
00000190: d67a c1bd 400d 3ebd 4ced b6bd fb73 a3bd
000001a0: 343c ecbd e8b4 e63e 5043 483e 5e82 e13e
000001b0: 0d16 98bd 1b1d 9d3d 2a2a 7abd a3b2 8bbd
000001c0: b109 87be 96b7 1dbd 0dd1 8e3e 946d 6d3e
000001d0: d806 1b3e 9f20 28be fc64 28be af66 cabd
000001e0: 648a a7be cb48 813e cd0c c9be 9ef1 903d
000001f0: 44a5 8b3e fd4c 03be 663f 3b3e 573e 19be
00000200: 62f4 793d cb63 a0be c2ac 03be fc08 51be
00000210: 8953 163e f724 593d 13db 38bd 2c50 84be
00000220: 6040 dfbd 1e34 00be 6014 a5be f37f ac3d
00000230: cdea d3be 7540 653e 78f2 323e 524e 123e
00000240: e811 87be dc8f 1fbe a42e c3bd b044 4f3e
00000250: 11fe 7fbe 514e b4bd ae1e 2ebe d079 5cbd
00000260: a379 63bb de71 c93e e056 963e 509f 8a3e
00000270: 4e56 153e 9277 293d f2dc 8f3c 1eaf f8bc
00000280: 2d80 9fbd 527a 7fbe 2e65 8a3e c67d 073e
00000290: b573 563e f51c 243d b5fb a2bd 8c96 7bbe
000002a0: d137 38be af7d 55be 3a5d a0be d8ff 77bd
000002b0: c94c 183e c4b1 a2be 44e7 b439 3463 4c3d
000002c0: 8d8e 7fbe ef07 493d 9f70 1cbe 2c4f 92be
000002d0: 33d8 d8bc 3ea2 3b3d 3538 c23c 0997 61be
000002e0: f07f 99bd 2247 9dbe 1121 c6be 1381 943d
000002f0: d691 9fbe 0e5d 6b3e aabd 0a3e 66cb 093e
00000300: bc96 32be ac1f 3bbe 9325 8ebd e82d 45be
00000310: d112 7cbe 1ae5 c63d 6bb4 b9be ccc2 37be
00000320: 2856 84be ea52 873e fb96 483e c884 ce3e
00000330: 6e73 17be c7a0 723e b663 8abe 54e4 6cbd
00000340: 66d4 2ebe b003 5ebe 825b b73d ef57 6abd
00000350: 72a9 c33e 3c31 d5bd 6f26 6fbe 882a 8dbe
00000360: 0569 bcbe 4267 14be 4891 473d 4165 903c
00000370: f99f 4d3e 874e 3dbe 8181 c6be 9471 c0be
00000380: d2ca 0cbd dbd5 76be 1507 9dbd 8bf6 91bd
00000390: 7bd8 a8be 771f 22bd db52 b5bd a063 2cbe
000003a0: 51c4 c0bd 4310 b4be bd1f 84be 647c d3bd
000003b0: bf5f 68bd 5963 e53d 0b96 c23d 7007 d93e
000003c0: 0272 9e3d 181e 743d f0bd 793e f86f bebd
000003d0: c6cc 70be 2dfb 07be e6de c43d 7a8a a3bd
000003e0: ee5e 2fbe 6c66 f1be 57f9 cfbe 40fb b4be
000003f0: d536 babc 12d3 c93d 749f 32bd 6f36 3d3d
-0.3043814 0.09558406 0.05435155 -0.2863841 -0.070475236 -0.2805791 -0.034033608 -0.14073586
0.15468262 -0.59109485 -0.27601072 -0.4346206 0.09798812 0.14948454 0.11764862 -0.24610074
0.022012286 -0.102254346 -0.38643405 -0.20992841 -0.35640866 -0.029982751 0.053763587 -0.046436302
0.26415983 0.095028535 0.16018921 -0.12350628 0.027134642 0.2048528 0.062316496 -0.050668005
0.052063342 -0.25800687 -0.14397474 -0.08694515 -0.025351644 0.19003366 0.14388125 0.095600374
0.048859913 0.049240164 0.22449188 0.17954646 -0.13488737 -0.39470306 -0.32654962 -0.31817806
-0.11503125 -0.13636644 0.2821733 -0.12804173 -0.16063052 -0.17337249 -0.018674823 0.09330841
-0.055403292 -0.50693196 -0.357845 -0.29624695 0.25962877 0.06670497 -0.021892503 -0.17945817
0.082456656 -0.08375186 -0.3839851 -0.27350578 -0.28258035 -0.29800242 -0.047088455 0.18047233
0.1796407 0.106823035 0.028158229 -0.22637336 -0.16580996 0.21277629 0.081491925 0.02685329
0.075235255 -0.2847953 0.061075527 0.33711898 -0.06236817 -0.06066131 -0.021155186 0.131825
0.08944726 0.10698884 0.108702354 0.033494294 0.20143583 -0.17855091 -0.009844555 -0.32304147
-0.13143228 0.08818541 0.057726894 0.15260747 -0.09447257 -0.046399355 -0.089319795 -0.07981106
-0.1153492 0.45059896 0.19556928 0.44044775 -0.07426081 0.07671567 -0.061075367 -0.068211816
-0.2637458 -0.03850516 0.27893868 0.23186332 0.1513933 -0.16418694 -0.16444772 -0.098828666
-0.3272277 0.2525085 -0.3926758 0.07077335 0.27274525 -0.12822337 0.18285903 -0.14965187
0.061024077 -0.31326136 -0.1285887 -0.20413584 0.14680304 0.053013768 -0.0451308 -0.25842416
-0.109009504 -0.12519881 -0.32242107 0.08422842 -0.41390076 0.2238787 0.17475307 0.1428769
-0.2638085 -0.15582222 -0.0953038 0.20241046 -0.24999262 -0.08804 -0.17003891 -0.053827107
-0.0034709952 0.39344686 0.29363155 0.2707467 0.14583704 0.041373797 0.01756141 -0.03035694
-0.077881195 -0.24949005 0.2703032 0.13231573 0.20942576 0.040066678 -0.079581656 -0.24569148
-0.17990042 -0.20848726 -0.31321126 -0.060546726 0.14873041 -0.3177625 0.00034504582 0.049899295
-0.24956723 0.04907983 -0.15277337 -0.28576028 -0.02647028 0.045809023 0.023708442 -0.22030272
-0.07495105 -0.30718333 -0.38697103 0.072511815 -0.31165951 0.22984716 0.13548914 0.13456497
-0.17440313 -0.182738 -0.069407605 -0.19255793 -0.24616553 0.097116664 -0.3627046 -0.17945403
-0.25846982 0.26430446 0.19588844 0.4033568 -0.14790127 0.23694144 -0.27029198 -0.05783494
-0.17073211 -0.21681094 0.089530006 -0.057212766 0.38215214 -0.10409781 -0.23354505 -0.2757151
-0.36798874 -0.14492515 0.048722535 0.017626407 0.20080556 -0.18486987 -0.3877068 -0.37586653
-0.034373112 -0.24105017 -0.076673664 -0.071271025 -0.32977661 -0.03958079 -0.08853694 -0.16834879
-0.094124444 -0.35168657 -0.25805464 -0.1032646 -0.056731936 0.1120059 0.09501275 0.42388487
0.07736589 0.059599012 0.24388862 -0.092987 -0.23515615 -0.1327941 0.09612827 -0.07985397
-0.17126057 -0.47148454 -0.4061992 -0.3534794 -0.022731224 0.098547116 -0.043609098 0.04619449
